saved_models/best_model_sup.pth (torch, 264904 bytes, 4 tensors)

conv1.bias f4 [16]
-0.05303332 -0.01040986 -0.011999278 -0.053033277 0.0 -0.05303331 0.0 -0.0530333
0.032847494 0.05791953 0.032006294 0.0 0.0 0.0 -0.053033274 -0.04779087
00000000: 7739 59bd 1e8e 2abc 9f98 44bc 6c39 59bd
00000010: 0000 0000 7539 59bd 0000 0000 7239 59bd
00000020: 188b 063d 073d 6d3d 0819 033d 0000 0000
00000030: 0000 0000 0000 0000 6b39 59bd 5cc0 43bd

conv1.lin.weight f4 [16, 4096]
-0.07905811 -0.0666604 0.04321239 0.07976679 -0.051934443 -0.032043565 -0.0656479 0.06618922
0.04387907 0.054739024 -0.060113452 -0.03445562 -0.015987538 -0.064834446 0.09088953 -0.018089743
-0.049094673 0.029344367 -0.06073169 -0.074097104 0.04920258 0.024886493 0.024239512 -0.08603443
-0.022995045 -0.09022788 -0.035309225 -0.061497003 0.08470821 -0.05903479 0.052336924 -0.019074084
-0.0467336 -0.029853856 0.040800802 0.08849673 -0.077009246 -0.019853257 -0.061967824 0.08011485
-0.03183625 0.08779089 -0.03334212 0.06154515 0.08656091 -0.024795813 -0.047997672 0.046322193
-0.062126484 -0.065057576 0.043057457 0.040869877 -0.081842944 0.034101576 -0.016640013 -0.067408435
-0.04151531 -0.059018325 -0.07224645 -0.026698297 -0.04944108 -0.039488856 0.070843264 -0.018545635
0.06996225 0.06781289 -0.08091525 -0.08595974 -0.02436646 -0.071787626 -0.04441378 0.066074386
0.02160851 -0.04651849 -0.07828118 0.03393152 -0.04380243 -0.052501615 -0.053475466 -0.027940676
-0.014985437 0.028387867 0.04848006 0.022624124 -0.089975126 0.028447656 0.016812408 -0.059381958
-0.088213794 -0.087081954 -0.03212651 0.026548347 0.07112961 0.08798559 0.030982498 0.02704793
0.051101476 -0.056734286 0.058052767 -0.052980773 0.07615906 -0.039141685 -0.06387987 -0.08933159
0.07234843 -0.06218414 -0.08504988 -0.026475824 0.06555618 -0.08163239 -0.08543449 -0.061951037
0.06991307 0.040801756 -0.071971595 -0.048267495 -0.032111563 -0.0303053 0.027534485 0.020535104
-0.055180952 0.028873112 -0.027207792 -0.066015795 0.03792687 0.085563764 -0.0702564 0.083936535
0.055322062 0.030725649 0.02755187 0.055617522 0.056307167 -0.04407775 -0.015919246 0.056724742
-0.08964233 0.0349003 -0.08148029 -0.069088556 -0.08962112 -0.07820314 -0.07974621 -0.05689148
-0.03263914 0.06071964 0.022246106 0.03708907 -0.07102842 -0.038046066 0.06678648 -0.07285879
0.052249983 -0.03670937 0.048429076 0.036956687 0.0524926 0.023777638 0.041073717 -0.043353725
0.028085556 -0.01564774 0.016370615 -0.034547698 0.08498502 -0.061328925 -0.0777757 -0.053932942
-0.035014067 0.069782004 0.044220135 -0.08985804 -0.016929042 -0.06422357 0.06432867 -0.038165238
-0.04402143 -0.06175558 0.070415914 0.03600398 -0.029077705 -0.06410532 0.04051872 -0.015425113
-0.07072553 0.03577651 0.081120595 0.026227275 -0.026246129 0.085542016 -0.037568737 0.08869852
-0.028166179 0.016288538 0.027112119 -0.023333056 0.074363016 -0.079310015 0.069676496 -0.082741134
-0.042254012 0.07521127 -0.07105333 -0.017446755 -0.026896682 -0.076955326 -0.078689516 -0.027879136
0.08114392 -0.04714387 0.088622816 -0.08702146 0.06380308 -0.08955569 0.07045469 -0.053110737
0.09106558 0.043198507 0.066097505 0.02676947 -0.04654881 -0.027471866 0.015753536 -0.07517802
-0.08504024 0.015881598 -0.0690888 -0.039076313 -0.08341476 0.0443014 0.07053022 0.04597074
0.016251098 0.020190354 -0.088855945 -0.04288018 0.06651478 -0.065342866 -0.04864779 -0.05203099
-0.07170135 0.04690217 -0.014921676 -0.089423224 -0.079569794 0.03713994 0.04146436 0.076155044
0.07809511 -0.056580298 0.023300624 0.07801776 0.07587606 0.017556721 0.06361986 -0.02548618
00000000: 38e9 a1bd 3f85 88bd 7aff 303d c55c a33d
00000010: 36b9 54bd 1d40 03bd 6872 86bd 378e 873d
00000020: 8aba 333d 0736 603d 8639 76bd 5621 0dbd
00000030: 4cf8 82bc ecc7 84bd 4a24 ba3d f130 94bc
00000040: 7f17 49bd 9963 f03c cbc1 78bd 39c0 97bd
00000050: a588 493d c2de cb3c f191 c63c d232 b0bd
00000060: 1b60 bcbc 65c9 b8bd 68a0 10bd 48e4 7bbd
00000070: 7f7b ad3d 77ce 71bd 3e5f 563d 4141 9cbc
00000080: bb6b 3fbd 1390 f4bc be1e 273d c63d b53d
00000090: 06b7 9dbd 4ca3 a2bc f9d1 7dbd 4113 a43d
000000a0: ba66 02bd b6cb b33d bf91 08bd c416 7c3d
000000b0: d946 b13d 9720 cbbc 3599 44bd 57bc 3d3d
000000c0: 5778 7ebd e83c 85bd 045d 303d 2c67 273d
000000d0: 469d a7bd 18ae 0b3d a350 88bc 6f0d 8abd
000000e0: f50b 2abd 33bd 71bd f2f5 93bd 63b6 dabc
000000f0: bb82 4abd 11bf 21bd 4616 913d 04ed 97bc
00000100: 5e48 8f3d 7ce1 8a3d e5b6 a5bd a90b b0bd
00000110: 2c9c c7bc 6405 93bd 39eb 35bd 0252 873d
00000120: 5404 b13c 2c8a 3ebd e251 a0bd c7fb 0a3d
00000130: 2d6a 33bd ef0b 57bd 1709 5bbd d8e3 e4bc
00000140: 7a85 75bc ac8d e83c 0793 463d 3a56 b93c
00000150: e144 b8bd 0f0b e93c 2dba 893c 7f3a 73bd
00000160: 6fa9 b4bd 0658 b2bd 1697 03bd eb7b d93c
00000170: 67ac 913d ca31 b43d 02cf fd3c 9f93 dd3c
00000180: c84f 513d 3662 68bd bdc8 6d3d 5e02 59bd
00000190: 48f9 9b3d 0853 20bd 73d3 82bd 7bf3 b6bd
000001a0: 6a2b 943d ccb4 7ebd a22e aebd d4e3 d8bc
000001b0: 5242 863d e22e a7bd 47f8 aebd 5fc0 7dbd
000001c0: 952e 8f3d be1f 273d d865 93bd 23b4 45bd
000001d0: 6a87 03bd d242 f8bc 0090 e13c 3c39 a83c
000001e0: 6c05 62bd 4e87 ec3c e0e2 debc 4a33 87bd
000001f0: 3559 1b3d 0e3c af3d 96e2 8fbd ebe6 ab3d
00000200: 6399 623d 5bb4 fb3c 76b4 e13c 33cf 633d
00000210: 58a2 663d df8a 34bd 1469 82bc 3458 683d
00000220: 6696 b7bd 9ef3 0e3d 23df a6bd 4d7e 8dbd
00000230: 478b b7bd f828 a0bd fb51 a3bd 0a07 69bd
00000240: 9eb0 05bd 28b5 783d 773d b63c b5ea 173d
00000250: 5977 91bd 31d6 1bbd 5ac7 883d fd36 95bd
00000260: 1404 563d 905c 16bd 915d 463d e55f 173d
00000270: 7b02 573d 52c9 c23c ea3c 283d ad93 31bd
00000280: ae13 e63c b02f 80bc ab1b 863c e381 0dbd
00000290: a00c ae3d 0a34 7bbd de48 9fbd cae8 5cbd
000002a0: e96a 0fbd dee9 8e3d 2c20 353d 7e07 b8bd
000002b0: c6ae 8abc a687 83bd c0be 833d 2753 1cbd
000002c0: d14f 34bd 6bf3 7cbd 3836 903d e978 133d
000002d0: 5e34 eebc a649 83bd f5f6 253d 9db9 7cbc
000002e0: 8cd8 90bd 648a 123d 8e22 a63d 95da d63c
000002f0: 1f02 d7bc a730 af3d ade1 19bd 92a7 b53d
00000300: c2bc e6bc 8a6f 853c 3c1a de3c f724 bfbc
00000310: a34b 983d 4a6d a2bd 8db2 8e3d 2f74 a9bd
00000320: 8b12 2dbd 5e08 9a3d 6984 91bd 7fec 8ebc
00000330: 6e56 dcbc c19a 9dbd f827 a1bd c962 e4bc
00000340: c92e a63d ee19 41bd e17f b53d 4f38 b2bd
00000350: 30ab 823d f968 b7bd 8c4a 903d a58a 59bd
00000360: 9780 ba3d ebf0 303d 215e 873d a64b db3c
00000370: f7a9 3ebd ae0c e1bc 8f0d 813c eff6 99bd
00000380: 9429 aebd 201a 823c 6e7e 8dbd 7c0e 20bd
00000390: 5cd5 aabd 6375 353d 2672 903d d14b 3c3d
000003a0: 0621 853c 3e66 a53c 1bfa b5bd 21a3 2fbd
000003b0: e738 883d 7bd2 85bd e842 47bd 731e 55bd
000003c0: 28d8 92bd 7d1c 403d 0c7a 74bc 8623 b7bd
000003d0: 7df5 a2bd 0d20 183d 88d6 293d 2df7 9b3d
000003e0: 54f0 9f3d bec0 67bd f3e0 be3c c6c7 9f3d
000003f0: e864 9b3d 1dd3 8f3c 214b 823d 65c8 d0bc

conv2.bias f4 [7]
0.09916205 0.20180538 -0.1768205 -0.06937735 0.037662305 0.12629114 -0.15531659
00000000: 7915 cb3d 12a6 4e3e 6f10 35be b615 8ebd
00000010: ca43 1a3d 7752 013e 500b 1fbe

conv2.lin.weight f4 [7, 16]
-0.33003318 0.12920064 -0.6107317 0.28921118 -0.12434885 0.33228013 -0.4316333 0.035784658
0.49842912 -0.6314199 0.009371366 -0.4605694 -0.08543025 0.19863643 0.030483646 0.42284268
-0.50570905 -0.10427372 -0.4380581 -0.1100617 -0.08115077 -0.16648239 -0.018853722 -0.071512416
-0.24273676 -0.29442233 -0.46670866 0.07983946 0.36120966 -0.43431494 0.113815375 0.15995401
-0.27348727 0.23460093 0.10577243 0.15740563 -0.18258111 0.05788916 -0.31329334 0.34112456
-0.34353045 -0.09928243 0.1908703 -0.16279157 -0.37338606 -0.4942698 0.08096415 0.013541504
-0.40206075 -0.4139577 -0.39983574 -0.10860318 0.42443594 -0.29042727 -0.069100335 -0.03329131
-0.30440706 0.06469434 0.6928743 0.45124385 -0.4085661 0.4117107 -0.3589628 -0.39252424
0.39893535 -0.13498403 0.16076194 -0.06894325 -0.13652922 0.2204817 0.2643163 -0.3996673
0.27020308 -0.009458249 -0.6193263 0.43766215 -0.28519747 0.47515175 0.07965829 0.09671455
-0.028884767 -0.6829207 -0.43545878 -0.3825583 -0.41800553 -0.32226753 -0.13330692 -0.4710966
0.04891858 0.5084979 -0.28682813 -0.50877124 0.02628883 -0.38090587 -0.22781496 0.28604415
-0.437528 -0.65423787 0.5567551 -0.52957016 -0.14066677 0.035793222 0.13973576 0.02377242
0.06037882 0.2719401 -0.22582775 0.29839993 -0.19642435 -0.2662166 0.21199249 -0.044084564
00000000: 1cfa a8be 2c4d 043e ea58 1cbf 7d13 943e
00000010: 9caa febd 9f20 aa3e 0aff dcbe ef92 123d
00000020: 1a32 ff3e bca4 21bf 5c8a 193c c1cf ebbe
00000030: 0ef6 aebd 5967 4b3e d7b8 f93c d67e d83e
00000040: 2676 01bf 768d d5bd 2749 e0be 0768 e1bd
00000050: 6032 a6bd 5c7a 2abe 1f73 9abc 1a75 92bd
00000060: fc8f 78be 86be 96be 70f4 eebe df82 a33d
00000070: 79f0 b83e 875e debe 0918 e93d fcca 233e
00000080: 8606 8cbe 3a3b 703e 379f d83d f12e 213e
00000090: 8bf6 3abe 2f1d 6d3d fc67 a0be e1a7 ae3e
000000a0: 39e3 afbe 9654 cbbd 8173 433e d5b2 26be
000000b0: 752c bfbe ee10 fdbe 88d0 a53d 2fdd 5d3c
000000c0: e8da cdbe 43f2 d3be 45b7 ccbe 586b debd
000000d0: ab4f d93e e2b2 94be 7a84 8dbd 785c 08bd
000000e0: 3edb 9bbe 777e 843d 3660 313f 6f09 e73e
000000f0: 932f d1be bfcb d23e f9c9 b7be f0f8 c8be
00000100: 4141 cc3e 4139 0abe c79e 243e 1e32 8dbd
00000110: 51ce 0bbe f4c5 613e 7754 873e 31a1 ccbe
00000120: 0f58 8a3e c6f6 1abc 2b8c 1ebf 4115 e03e
00000130: 6705 92be 1747 f33e e323 a33d 4712 c63d
00000140: bf9f ecbc e4d3 2ebf 74f4 debe aede c3be
00000150: d204 d6be 4000 a5be 9c81 08be 9333 f1be
00000160: d95e 483d eb2c 023f 23db 92be d53e 02bf
00000170: ac5b d73c 1806 c3be 5348 69be 6174 923e
00000180: ac03 e0be 227c 27bf 8187 0e3f e991 07bf
00000190: f30a 10be ea9b 123d e416 0f3e 61be c23c
000001a0: c84f 773d bc3b 8b3e 643f 67be e0c7 983e
000001b0: 7723 49be 8b4d 88be 8f14 593e 0492 34bd
