saved_models/best_model_sup.pth (torch, 94472 bytes, 4 tensors)

conv1.bias f4 [16]
00000000: c196 a23e 65fd d13e d82d a13e 192c a03e
00000010: 9b37 a73e f39c 8a3e 2542 ac3e b2c5 b83e
00000020: 0efa 75bd a0a4 a53e 5c02 8a3e 9016 b33e
00000030: 46e8 9d3e a841 c43e 01fa 75bd 4aae e03e
0.3175564 0.41013637 0.31480289 0.31283644 0.3265961 0.27072868 0.33644214 0.3608833
-0.060052924 0.3235216 0.26954925 0.3497815 0.30841273 0.38331342 -0.060052875 0.43882972

conv1.lin.weight f4 [16, 1433]
00000000: 0270 bc3e 19e1 55be 5674 263d 8b86 0cbd
00000010: ce76 a03c e685 6f3d 723c 48be e5da 21be
00000020: 9c5a 4ebe 80ec 2abe 0979 d9be 51c8 8f3e
00000030: 2192 9f3e 7131 8f3e 513f 25be 1c2d 573d
00000040: c2c3 95be 7739 cbbe 977d 71bd 7bc3 e53d
00000050: 17b1 4cbe e170 813e 4115 cfbd 9d3c 2a3e
00000060: ec49 68be 680f 65be ba2c 9c3e a7e2 8abe
00000070: d80a 5b3e b536 3bbe 5b75 2dbe 00b1 68be
00000080: 502a 33be 9e60 2ebe d6dd 18bd 31e8 9b3c
00000090: c840 40be 5ac3 3b3d 3cc2 a6bb c1b6 bc3e
000000a0: d1ec 52be 5192 763d f58f 68be c397 893e
000000b0: 58d1 45be 3581 963e 5567 07be 0c43 95be
000000c0: 653c 3dbe 0a4a 9ebe c950 9abd def4 a3be
000000d0: 5c68 133c 0b7d 50be 0943 25be f2aa 853d
000000e0: a446 0b3e 9f57 67be 7726 85be cbbf 8ebe
000000f0: 2ed7 c43e d353 edbd 2c46 3e3d cffc d83c
00000100: 6eb3 7dbd b10c 20be fdf1 bc3d 4821 62be
00000110: 3f6f 4c3e 0337 4fbe 38f8 96be aa36 d73c
00000120: a800 5f3d 2713 a0be 69f9 78be b11b a63e
00000130: 5b73 7ebe 1147 9fbe 4ef5 67be ceec 523e
00000140: a1aa b13e 02db 943e 8082 833d 5351 e6bd
00000150: 6372 e83d 257f 68be 1f49 083e ed2b abbd
00000160: 44bb e63c f9ca 63be f22f a9be 693e 8fbe
00000170: fbfb f3bc 2a2d a13e e1c8 dbbd e6d1 85be
00000180: 3e15 89bc 1484 0a3e 2c6d 743c 56e5 aa3c
00000190: 285d 503c 20fc eb3c 066a 90be 3946 afbe
000001a0: 335b 72be 3b44 53be e6ac 9a3c 6821 79be
000001b0: c8a8 83be 7a51 94be 1c30 123e d624 72bc
000001c0: ac37 40be 5043 4fbe d6c3 d53c 5e20 72be
000001d0: dfeb d8be 6dcc 32be cf2d 82be 5664 abbe
000001e0: dde0 2f3e f055 16bd 1a77 a4be 9957 eb3e
000001f0: 4d96 b43e e9b7 3d3c 7a20 8e3e 516b 543e
00000200: 994d 863e 7a92 ccbe a662 f33d ae7c 3ebe
00000210: 511e f1bd 3a34 ac3d ebb5 31be 55a2 febc
00000220: bfb8 a83e db6f ca3c 119e 15be f4b7 66be
00000230: 38fb 7cbe e764 f93e aea2 04be ab66 1dbe
00000240: 7f34 7a3e 12d4 723c 13dc 7dbd 5d12 443d
00000250: f96b 1dbc 0004 70be 5955 b43e abe0 5dbe
00000260: 95fa 36be 8016 c13e 3a0d eebc aa2f 2b3d
00000270: dd8c 933c aaa8 0e3d 3e51 2bbe fe05 553c
00000280: d34a 29be 0991 72bd 94e6 933d 745d e03d
00000290: 63eb 4f3d 19c2 39be b4f7 a4bd 6aca 95be
000002a0: a30a bdbe 23d9 af3e 27f1 943e afe2 afbd
000002b0: 57e3 30be 9efa 92bb 9057 87be 41b1 0a3d
000002c0: 29b6 1fbb ca5d 403d 741a 6fbc ed41 88be
000002d0: 497d cbbd aaf2 edbd 3217 8a3e f32e 91bd
000002e0: bc84 a03e 3897 733e c6b9 1a3e cb68 80be
000002f0: 2bb4 44be 3aa0 773e 639a 35be 40ab 09be
00000300: fea1 4abe a1d7 f53e d69f 8dbe 1962 e43c
00000310: 5aa4 04be 9745 4d3e c625 e1be 0622 0cbe
00000320: 1103 613d 48dc 10bd f73d 3a3d 45a4 d5bd
00000330: 3e78 29be 5f90 87be 2f84 93be e9cd 50be
00000340: 4885 7f3d 970a 8e3e fda2 9a3e f6f6 c53e
00000350: f919 12be 6472 83be 217c 33be cfd8 a7be
00000360: eae9 36be fbb4 9c3e 2898 263e 6c21 ae3e
00000370: 8178 ab3e d4e7 14be 5dfb 58be 66f2 a93d
00000380: 8de0 773d 1ba7 9ebc 3d73 7ebe 67da 30bd
00000390: 924b 96be de08 af3e 30f4 35bd 891e 93bd
000003a0: f6bb ee3e ae2a 5dbe 1be0 82be 6018 77be
000003b0: 0d8c 9c3e 296a a93e 7c5f d73d 5238 a4be
000003c0: ca3f 81be 619a 28be 440b 823e 5f99 7e3e
000003d0: 41a6 22be 0dec adbe c0f1 a83e d207 8d3e
000003e0: 311c e5bd 872c 2c3e 803e bbbd f792 94be
000003f0: 8f15 5dbe dc41 663d ec93 223e 8f21 9f3e
0.36804205 -0.20886649 0.04063829 -0.034307998 0.0195879 0.058477305 -0.19554308 -0.15806158
-0.20151752 -0.1669178 -0.42475155 0.28082517 0.31166175 0.27967408 -0.16137435 0.052533254
-0.29250914 -0.3969228 -0.058957662 0.112189256 -0.1998943 0.25281432 -0.10111476 0.16624685
-0.22684449 -0.22369158 0.30502874 -0.27126047 0.21390855 -0.18282588 -0.16939299 -0.2272377
-0.1749661 -0.17029044 -0.037320934 0.019031616 -0.18774712 0.0458406 -0.0050890725 0.3685818
-0.20598151 0.060198132 -0.22711165 0.26873598 -0.1931814 0.29395452 -0.13223012 -0.29152715
-0.1848007 -0.30915862 -0.0753494 -0.32022756 0.008997049 -0.203602 -0.16138853 0.06526746
0.13601166 -0.22592019 -0.2600591 -0.278807 0.3844542 -0.11588254 0.04645364 0.026487736
-0.061938696 -0.15629841 0.09225843 -0.22083008 0.19964312 -0.20235829 -0.2948625 0.026271183
0.054443985 -0.31264612 -0.24313892 0.32443002 -0.24848692 -0.31108907 -0.2265217 0.20598146
0.34700492 0.2907334 0.06421375 -0.1124598 0.113499425 -0.22704752 0.13309143 -0.083579876
0.028165467 -0.22245397 -0.33044392 -0.27977303 -0.02978324 0.3147977 -0.10731674 -0.26136702
-0.016733762 0.13526946 0.014918607 0.020861309 0.012717523 0.028806746 -0.2820589 -0.34233263
-0.23667602 -0.20631497 0.018881273 -0.2432915 -0.25714707 -0.28968412 0.14276165 -0.01477929
-0.18771237 -0.20240521 0.026094358 -0.2364516 -0.42367455 -0.17460795 -0.25425574 -0.33474988
0.17175622 -0.03670305 -0.32122117 0.4596527 0.3527092 0.011579492 0.27759153 0.20744063
0.26231077 -0.39955503 0.1188405 -0.18602249 -0.117733605 0.08408399 -0.17354552 -0.031083265
0.3295345 0.02471154 -0.14611079 -0.2253111 -0.24705207 0.48709795 -0.12952682 -0.15371196
0.24434088 0.014821069 -0.061977457 0.047869075 -0.009608262 -0.23439026 0.35221365 -0.21667735
-0.17869027 0.3771248 -0.029059041 0.041793503 0.018011505 0.03482882 -0.1673021 0.013001917
-0.1653245 -0.059220348 0.07221714 0.10955325 0.05076159 -0.18140449 -0.08055058 -0.29255992
-0.36922178 0.3434535 0.29090235 -0.08588158 -0.17274223 -0.0044854423 -0.26433992 0.03386045
-0.002437005 0.046964444 -0.014593709 -0.26612797 -0.099360056 -0.1161855 0.26970822 -0.07089033
0.31351268 0.23788154 0.1510993 -0.2507995 -0.19209354 0.24182215 -0.17734675 -0.13444233
-0.19788358 0.48016074 -0.27661008 0.027878808 -0.1295332 0.20046078 -0.4397413 -0.13684854
0.054934565 -0.035366327 0.04546925 -0.104317226 -0.16549775 -0.26477334 -0.28811786 -0.20391048
0.062382966 0.27742454 0.30202475 0.3866498 -0.1426772 -0.2567321 -0.1752782 -0.327826
-0.17862669 0.30606827 0.1626898 0.34009874 0.33490375 -0.1454156 -0.21189637 0.08298187
0.060516883 -0.019366791 -0.24848647 -0.043177035 -0.2935453 0.34186453 -0.04442233 -0.071835585
0.46627778 -0.21598312 -0.25561604 -0.24130392 0.305756 0.33088806 0.10516259 -0.3207422
-0.2524398 -0.16465141 0.2539922 0.24863194 -0.15883733 -0.33969155 0.3299694 0.2754503
-0.11187018 0.16813861 -0.0914278 -0.29018375 -0.21590255 0.056215152 0.1587674 0.3108029

conv2.bias f4 [7]
00000000: 6505 983e 3524 25be c742 e93e 6701 22be
00000010: e64d 74be 7290 3fbe 623a adbe
0.29691616 -0.16127093 0.4555876 -0.15820847 -0.23857841 -0.18707445 -0.33833605

conv2.lin.weight f4 [7, 16]
00000000: 2093 00bf 8fdc 453f e892 5d3f 6ad2 72bf
00000010: 4e99 04bf dc44 143f 5b31 6abf f32d 86bf
00000020: c702 513e 9ba8 76bf 9a8c 30be 0d5f 443f
00000030: 94f6 2dbf 7de2 f7be cfc9 813e 4760 16bf
00000040: 50c5 383f 03b2 893c b55d ec3e dbd5 e23e
00000050: 4e67 15bf 71dd 04bf 5baa 5d3e 61d3 2e3e
00000060: ea0f 873e 8ade 413e 6939 353f c24f 57bf
00000070: c152 af3e 4cf1 82bf 3298 083d 66ba ed3e
00000080: 5110 72bf 14eb 6dbf 7cec 5abf ae25 18bf
00000090: 7b8e 4abf b89d 463f f658 00bf 96d1 68bf
000000a0: c933 0abf 837e da3e bbf9 4cbf 31f5 08bf
000000b0: 9b73 513f 0aa2 c43e 4df0 51bd 9d2b 25bf
000000c0: bf68 f7be c366 373f 6bb8 70bf 6b3a 2ebf
000000d0: 31b8 f13e 4af6 15bf ce40 593f 2236 2a3f
000000e0: a801 a5be 64cf 31bf 32b6 e5be cc70 e1be
000000f0: f9fe 21bf ed94 f7be b4e4 543d a692 32bf
00000100: 251a 753e 8d1f 003e 082b 46bf c9af 543f
00000110: de4e 73bf 6a22 40bf 017b ad3d 82d5 e03e
00000120: 8cc8 4ebd e323 74bf 828d 50bf 58d6 003f
00000130: 3de8 2e3f f1fb 6f3e dae1 55bc 6091 60bf
00000140: 0d97 11bf 0235 f1be 52c4 62bf 28c6 27bf
00000150: 4ec5 0cbf 18f9 69bf 3b09 56bf 45e1 c6be
00000160: 6846 94bc ccc5 0d3e a769 c53e ddfb 393f
00000170: 554e 27bf 347c f43e 2163 31be 5171 683f
00000180: d246 e63e 00d6 7cbf 8457 57bf 39f9 de3e
00000190: e988 393f 6c24 2fbf f261 063e 8a01 8dbf
000001a0: 460b e53e f602 433e fe24 043f 4673 103f
000001b0: 6824 2bbf aeba 653d 37bb 3cbe 1e88 62bf
-0.50224495 0.7728967 0.86552286 -0.94852316 -0.51796424 0.5791757 -0.9148156 -1.0482773
0.20411216 -0.9635102 -0.17241135 0.76707536 -0.67954373 -0.48414984 0.2534928 -0.5874066
0.72176075 0.016808515 0.46165243 0.44303784 -0.58360755 -0.5190039 0.21647017 0.17072822
0.2637933 0.18932548 0.70790726 -0.84106076 0.34242824 -1.0229888 0.03334827 0.46431273
-0.94556147 -0.92936826 -0.85517097 -0.59432495 -0.7912366 0.7758441 -0.50135744 -0.909448
-0.5398527 0.42674646 -0.8006856 -0.5349913 0.81817025 0.38404876 -0.05125456 -0.64519674
-0.48322102 0.71641177 -0.940314 -0.6805789 0.4721084 -0.5857893 0.8486451 0.6648885
-0.32227826 -0.6945708 -0.44865566 -0.4403137 -0.6327968 -0.4835581 0.05197592 -0.6975502
0.23935755 0.12512036 -0.7740941 0.83080727 -0.95042217 -0.7505251 0.08470727 0.43912894
-0.050484225 -0.9536726 -0.81465924 0.5032706 0.6832312 0.23435952 -0.0130543355 -0.87721825
-0.5687111 -0.47110754 -0.8858081 -0.6553674 -0.54988563 -0.9139571 -0.83607835 -0.38843742
-0.018099979 0.13844985 0.3855717 0.7264994 -0.653539 0.4775101 -0.17322971 0.9079791
0.44975907 -0.9876404 -0.84117913 0.43549517 0.72474533 -0.6841495 0.131233 -1.1016095
0.44735163 0.19044098 0.51618946 0.56425893 -0.66852427 0.056086235 -0.18430792 -0.8848895
