saved_models/best_model_ssl.pth (torch, 264904 bytes, 4 tensors)

conv1.bias f4 [16]
-0.057600014 -0.05752075 0.06421477 -0.058305882 -0.0568997 0.1074855 0.215186 0.17485762
-0.051307857 0.089919806 0.24510577 -0.009825566 0.052165166 -0.056531895 0.06905448 0.019821368
00000000: feed 6bbd e19a 6bbd 0983 833d 26d2 6ebd
00000010: a90f 69bd 5c21 dc3d b859 5c3e e00d 333e
00000020: 3028 52bd e027 b83d 02fd 7a3e 69fb 20bc
00000030: 24ab 553d fd8d 67bd 6f6c 8d3d 6c60 a23c

conv1.lin.weight f4 [16, 4096]
-0.0007812887 0.0006285008 -0.0007141879 -0.0005283866 -0.00017228862 0.00086861645 -0.0009872887 0.00028914618
0.00056522444 9.86376e-05 0.0005367344 0.0001685519 -0.00051510404 0.0003207957 -2.0499207e-05 0.00012223325
-0.0008220025 -0.00051949767 0.00011719766 -0.00061951857 0.00055240357 0.0006047718 0.000622445 0.00197774
-0.00019644146 -0.002522615 -4.2631145e-06 -0.00022091795 -0.00025693508 -0.0005901604 9.959842e-05 0.0005065714
-0.0075119 -0.0003351553 -0.00022836371 -0.000118472555 0.0045583285 -3.0733027e-05 -0.0012797827 0.0002556199
0.0008475926 0.00048135425 -0.00087328925 -0.00044055906 0.00019910886 -0.00041400205 0.0004942264 -0.00020529081
-0.0002926589 -2.735456e-05 0.0012763175 0.00020527144 0.0048281755 0.022970969 -1.4217265e-05 0.0006801285
-0.01959615 0.00021438027 0.0012444304 0.0069502275 0.00039602414 -0.0011226716 0.00020221777 -0.00021548089
0.0005968112 -0.0019816628 -0.0004706922 -1.737308e-05 0.00023426168 -0.0009282966 0.0015766267 -0.00079153595
0.00024588566 0.00014296192 0.0004913776 -0.00021932977 0.0006189992 2.53783e-05 -0.00040369932 9.5676725e-05
0.00013847984 -0.00027437008 0.00036617825 0.0014331822 0.00085702183 0.005602037 -0.0004907132 -0.0017369043
5.4457196e-05 0.0017116483 5.4117158e-05 8.3410894e-05 -0.0005989213 0.0081248935 -0.000295006 0.0023623551
9.076755e-05 8.5372274e-05 0.00010051971 0.00069882325 -0.0005941177 0.000109626664 0.0009207494 0.00065026473
-0.00023826669 0.0009527816 0.00036982098 0.0010255015 0.0011042405 2.2401684e-05 -0.00043355627 2.1182623e-06
0.0001561829 -0.00040637868 0.00039967246 -0.0009643886 0.00014686718 -0.0002922851 -0.00062270655 -0.00057042576
0.00016655454 -0.00046763165 0.0004017597 -3.7796966e-05 8.874117e-05 -0.0005533594 0.000754166 -0.00014653595
0.00022823898 0.0001926872 -2.3043569e-05 -0.00023653408 0.0007546354 -0.0068467567 0.003187456 0.00016118454
-0.003356711 -0.00016239748 0.00014869134 0.00026260977 -0.00042674202 5.389683e-05 0.00029555612 -0.00025338147
0.00010348891 -0.0037089533 0.00016050454 0.00075979024 7.4107593e-06 0.00037557734 -0.0040793065 0.00062012824
-0.00039804596 0.0007469954 0.00028394646 -0.00019798106 0.0007688139 0.0019016574 -1.1480777e-05 0.005725034
0.0011165751 -0.0006651076 -0.00012114506 -0.00034376202 -0.00020822982 0.0006664255 -0.0004123267 0.0053264135
0.00036557252 0.0003484623 -0.0001855095 0.00033492513 0.00031394008 0.0033906503 0.00084434 0.0007241842
-0.0003901113 0.00018875711 0.00014221786 7.576145e-05 -0.00024041517 -0.00071988325 7.925553e-05 0.0002531834
-0.00084834563 0.00024286218 -0.00044757596 -0.001391023 -0.0007481709 -0.00028059617 -0.0016189712 0.0009518414
0.0054886304 -4.8646652e-05 0.00020903416 0.0040221633 1.742737e-05 0.0006525773 0.00026308149 -0.0012683818
0.0006603637 -0.0011127122 -0.00046356293 8.659393e-05 1.119962e-05 -0.00087811117 0.00036565194 -0.00014042924
4.0741506e-06 -9.357186e-05 -0.00017459352 -0.0075653656 9.024819e-05 -0.000535378 -0.00014311334 -0.0006317754
-0.00067876966 0.00097256055 -0.00839169 -0.00035132968 -0.00025107464 0.00024106381 -0.0029535927 -0.00028458307
0.00078875496 9.787358e-05 0.0001418874 -0.0006763868 5.964507e-05 0.0012653288 0.00074174907 -0.0010972635
-0.00030693022 -0.0010533456 0.0009408108 -0.0003069298 0.0062801735 -4.445701e-06 -0.0030179191 -0.0005026759
-0.0005905152 0.00014531853 8.3889965e-05 -0.00096064026 -0.00031864012 -0.00019528045 -0.007886591 0.0005317899
-0.00031840947 3.4675424e-05 -0.0001302807 0.0005721139 -0.00036274374 7.692569e-05 0.0031208175 0.0010334242
00000000: 66cf 4cba fac1 243a 5738 3bba 6d83 0aba
00000010: 60a8 34b9 ddb3 633a e967 81ba 8b98 9739
00000020: 922b 143a a9db ce38 a3b3 0c3a 4ebd 3039
00000030: 0c08 07ba 7830 a839 b6f5 abb7 bd2b 0039
00000040: a77b 57ba e62e 08ba 04c8 f538 3067 22ba
00000050: 2dcf 103a 8c89 1e3a 942b 233a f99c 013b
00000060: dafb 4db9 7552 25bb e00b 8fb6 36a6 67b9
00000070: 3eb5 86b9 feb4 1aba 7fdf d038 6ecb 043a
00000080: 6226 f6bb c8b7 afb9 eb74 6fb9 7874 f8b8
00000090: 085e 953b 56e7 00b8 62be a7ba b904 8639
000000a0: fa30 5e3a 465e fc39 73ed 64ba d6fa e6b9
000000b0: e1c7 5039 6a0e d9b9 f98e 013a 5543 57b9
000000c0: 0370 99b9 7877 e5b7 1c4a a73a 223e 5739
000000d0: ac35 9e3b 9d2d bc3c b086 6eb7 a74a 323a
000000e0: 1b88 a0bc 44cb 6039 281c a33a bcbe e33b
000000f0: 76a1 cf39 9c26 93ba 6b0a 5439 b6f2 61b9
00000100: 5273 1c3a c9de 01bb 3dc7 f6b9 68bc 91b7
00000110: 24a4 7539 ee58 73ba d0a6 ce3a 147f 4fba
00000120: 37ea 8039 0ce8 1539 cbcf 003a e3fb 65b9
00000130: 5544 223a 7ce3 d437 9ba7 d3b9 0da6 c838
00000140: e634 1139 54d9 8fb9 9dfb bf39 9dd9 bb3a
00000150: c3a9 603a 4b91 b73b 35a3 00ba d6a8 e3ba
00000160: f868 6438 6359 e03a dbfb 6238 e2ec ae38
00000170: ee00 1dba 461e 053c 09ab 9ab9 bed1 1a3b
00000180: 755a be38 e409 b338 1cce d238 3c31 373a
00000190: 90be 1bba 5ee7 e538 725e 713a 8776 2a3a
000001a0: 3ad7 79b9 17c4 793a 88e4 c139 1f6a 863a
000001b0: 2abc 903a 40eb bb37 f04e e3b9 7827 0e36
000001c0: 07c5 2339 390f d5b9 218b d139 06cf 7cba
000001d0: 5c00 1a39 d83d 99b9 213d 23ba a088 15ba
000001e0: 25a5 2e39 752c f5b9 46a3 d239 2f88 1eb8
000001f0: 8e1a ba38 520f 11ba 39b3 453a 72a7 19b9
00000200: 6f53 6f39 140c 4a39 b04d c1b7 2206 78b9
00000210: b9d2 453a c25a e0bb a3e4 503b a503 2939
00000220: 44fc 5bbb 3e49 2ab9 07ea 1b39 e3ae 8939
00000230: 58bc dfb9 480f 6238 dff4 9a39 49d8 84b9
00000240: 2f08 d938 e911 73bb 1c4d 2839 a92c 473a
00000250: f0a9 f836 23e9 c439 b4ab 85bb 1a90 223a
00000260: d3b0 d0b9 03d2 433a a6de 9439 2399 4fb9
00000270: 3a8a 493a 0941 f93a 909d 40b7 1199 bb3b
00000280: 0b5a 923a 9e5a 2eba 420f feb8 f53a b4b9
00000290: 4458 5ab9 0fb3 2e3a 8e2d d8b9 3289 ae3b
000002a0: 50aa bf39 d1b1 b639 5485 42b9 e498 af39
000002b0: 5398 a439 ac35 5e3b b356 5d3a 2ed7 3d3a
000002c0: da87 ccb9 1aed 4539 5120 1539 1ee2 9e38
000002d0: f517 7cb9 8cb6 3cba fd35 a638 b3bd 8439
000002e0: 8363 5eba d2a8 7e39 a1a8 eab9 fd52 b6ba
000002f0: e620 44ba fb1c 93b9 a933 d4ba ff84 793a
00000300: f8d9 b33b f209 4cb8 2e30 5b39 5acc 833b
00000310: fe30 9237 b911 2b3a 33ee 8939 d53f a6ba
00000320: 421c 2d3a 6dd8 91ba 5d0a f3b9 c399 b538
00000330: 00e6 3b37 0b31 66ba f9b4 bf39 3040 13b9
00000340: b0b4 8836 033c c4b8 1713 37b9 e3e6 f7bb
00000350: a143 bd38 9c58 0cba b210 16b9 bb9d 25ba
00000360: 76ef 31ba 6ff3 7e3a 4d7d 09bc ac32 b8b9
00000370: aba2 83b9 13c6 7c39 1091 41bb 1834 95b9
00000380: 73c4 4e3a 7a41 cd38 9cc7 1439 8d4f 31ba
00000390: 682b 7a38 64d9 a53a f071 423a 0ed2 8fba
000003a0: 7aeb a0b9 6a10 8aba bea0 763a 6ceb a0b9
000003b0: eac9 cd3b 482c 95b6 48c8 45bb 02c6 03ba
000003c0: cecc 1aba a560 1839 15ee af38 7ad3 7bba
000003d0: 270f a7b9 32c4 4cb9 c336 01bc d167 0b3a
000003e0: 32f0 a6b9 7470 1138 f69b 08b9 eaf9 153a
000003f0: a42e beb9 2a53 a138 a186 4c3b f673 873a

conv2.bias f4 [7]
0.33556804 -0.33977607 0.098334804 -0.4230375 0.32171705 0.34094226 0.2794841
00000000: 93cf ab3e 21f7 adbe c263 c93d 5f98 d8be
00000010: 19b8 a43e fc8f ae3e 8a18 8f3e

conv2.lin.weight f4 [7, 16]
0.02695261 -0.003897405 0.4871055 -0.021600468 0.000693165 -0.84984183 0.26005405 -0.31036988
-8.291538e-05 0.34205312 0.588576 -1.3445755 -0.56468815 0.00034360553 -1.1684488 0.51758343
-0.04640376 0.0004519497 -0.21664855 -0.0010092645 -0.103304565 -0.6004129 -0.7032787 -0.33799937
-0.0016796896 -0.6045813 0.12034167 0.70284384 0.5532973 0.00018962272 0.6274375 -0.57789713
0.00014676739 0.058971096 -0.107841216 0.00078032725 0.0020353566 -0.5978013 -1.1023935 -0.2560166
0.027838832 0.14270402 -1.0385913 0.136982 0.53238785 -0.0043507554 0.12829295 0.61356175
-0.024526207 0.00062711287 -0.70254725 -0.00065629167 0.003752444 0.9233644 0.0117801055 0.3244667
-0.00042639588 -0.3373813 0.8471531 -0.28346384 -0.10012564 -0.00017986525 -0.78910875 0.07019406
-0.022134474 0.0002589344 -0.68124926 -0.00086144987 0.00968309 0.3620559 0.40376318 -0.38816088
-0.0027762086 0.41875297 -0.35020176 -1.1116874 0.61825925 0.0012768386 0.16560903 0.18438694
-0.0019882573 0.00012686514 -0.89773446 0.0043693543 0.0039655967 -0.8316979 -0.8858239 0.79250383
-0.0024042833 0.59438336 -0.0050024125 0.27703333 0.10395837 0.0050894273 -0.76910263 -0.5385028
0.07113443 0.0143501805 0.6535088 -0.00018124783 -0.002380744 0.43352336 0.42731887 0.44825107
-0.00048062572 -0.048877213 -0.8460824 -0.78357184 -0.6337058 -0.0045583383 0.32247043 -0.7576688
00000000: b8cb dc3c 9b6b 7fbb e465 f93e 77f3 b0bc
00000010: 84b5 353a 3c8f 59bf ce25 853e cde8 9ebe
00000020: dbe2 adb8 9621 af3e ebac 163f 0d1b acbf
00000030: 678f 10bf f425 b439 bb8f 95bf 5980 043f
00000040: de11 3ebd a9f3 ec39 1ed9 5dbe 4c49 84ba
00000050: 5891 d3bd a9b4 19bf 130a 34bf 410e adbe
00000060: 0829 dcba d7c5 1abf b275 f63d 93ed 333f
00000070: e4a4 0d3f 76d5 4639 be9f 203f 11f1 13bf
00000080: 92e5 1939 ad8b 713d dbdb dcbd e08e 4c3a
00000090: 9e63 053b 8209 19bf 3b1b 8dbf 9c14 83be
000000a0: 430e e43c 0121 123e 8ff0 84bf 0245 0c3e
000000b0: 924a 083f c890 8ebb 3a5f 033e 6212 1d3f
000000c0: 2feb c8bc d564 243a 23da 33bf fd0a 2cba
000000d0: 90eb 753b 9c61 6c3f 5801 413c 8020 a63e
000000e0: e38d dfb9 3ebd acbe 07df 583f 2c22 91be
000000f0: ac0e cdbd 369a 3cb9 0803 4abf e7c1 8f3d
00000100: 5b53 b5bc 96c1 8739 5a66 2ebf ecd2 61ba
00000110: d3a5 1e3c 645f b93e 0cba ce3e 06bd c6be
00000120: 0df1 35bb ca66 d63e a54d b3be c64b 8ebf
00000130: 3d46 1e3f 985b a73a 6a95 293e eecf 3c3e
00000140: 6c4d 02bb 1a07 0539 edd1 65bf cd2c 8f3b
00000150: d6f1 813b 27ea 54bf 5bc5 62bf 88e1 4a3f
00000160: 2e91 1dbb 8229 183f 47eb a3bb 50d7 8d3e
00000170: 20e8 d43d 36c5 a63b e9e3 44bf 52db 09bf
00000180: eeae 913d 051d 6b3c 5a4c 273f 580d 3eb9
00000190: 4206 1cbb c6f6 dd3e 8ac9 da3e 2a81 e53e
000001a0: 7efc fbb9 7933 48bd db98 58bf 2a98 48bf
000001b0: 8b3a 22bf 1d5e 95bb d81a a53e 95f6 41bf
