saved_models/best_model_ssl.pth (torch, 94472 bytes, 4 tensors)

conv1.bias f4 [16]
000000 c9 5b 91 3e 40 0b 16 3e 41 21 83 3e cd de 55 3e
       0.2839034 0.14652729 0.25611308 0.20885773
000010 c2 75 5b 3e 2a 7a 29 3e 1f 03 43 3e 29 6c a5 3e
       0.2143164 0.16550508 0.1904416 0.32309082
000020 ec 26 76 3e 71 06 24 3e 58 be 95 3e df de 35 3e
       0.24038285 0.16018082 0.29246783 0.177608
000030 82 23 79 3e cd 25 64 3e 67 b1 07 3e 94 19 ff 3d
       0.24329951 0.22280045 0.13251267 0.124560505

conv1.lin.weight f4 [16, 1433]
000000 5d 2e 8e be c6 3d 4b bc e9 0f 52 be 38 ba 46 bc
       -0.27769747 -0.012404865 -0.20513882 -0.012129359
000010 45 b1 2e 3e 08 1f 6f 3d f3 2d 90 bc d5 e9 41 3e
       0.1705981 0.058379203 -0.017600035 0.18936856
000020 92 5b 93 be a7 2b 4f 3e 14 d2 43 be 3d cc ed bd
       -0.287808 0.20231496 -0.19123107 -0.11611221
000030 5e 17 a5 bd c1 82 50 3e 01 0c ae 3e a1 8a 8a be
       -0.080610976 0.20362379 0.33993533 -0.2705889
000040 05 68 96 bc 66 fe 81 be ca d4 16 be b8 32 69 3d
       -0.018360147 -0.25389403 -0.1472961 0.056933135
000050 18 8e db 3d 61 74 d5 bd c5 56 8a be 62 0f 4a 3e
       0.107204616 -0.10422588 -0.27019325 0.1973243
000060 64 38 11 3e d0 2e 92 3e 08 ba a1 3d e6 31 98 be
       0.14181668 0.2855134 0.07896811 -0.2972557
000070 01 97 6b 3d 22 cf 3f 3e f3 45 ca bc ea d0 6b 3e
       0.057517055 0.18731359 -0.024691558 0.23028913
000080 8c 03 c8 3e 7b ce 19 3e 28 fb 84 be 62 ee 31 3e
       0.39065206 0.15020172 -0.25972867 0.17376092
000090 a4 21 8a be 27 6a 01 3e 95 e5 31 be 31 27 ce be
       -0.2697879 0.1263815 -0.17372735 -0.40264276
0000a0 f1 ef db 3d 64 b4 88 be 23 a6 8b bc c4 f4 50 3e
       0.107391246 -0.26700127 -0.017046994 0.2040587
0000b0 e2 f0 5b 3e d2 c0 6c be 10 26 5e 3e 84 59 6a 3e
       0.21478608 -0.2312043 0.21694207 0.2288571
0000c0 07 f4 cd 3d 88 de 02 3e 2c fc d5 3c 1f af 84 3e
       0.1005631 0.12780201 0.026121221 0.25914857
0000d0 36 9c 9c bd 61 1d 7b be 59 ba 4f be 74 98 26 bd
       -0.07646982 -0.24522926 -0.2028593 -0.040672734
0000e0 31 de 8f 3e b3 0e 14 3e bb 8c 3d 3e 86 e9 c0 3d
       0.28099206 0.14458732 0.18510716 0.09419541
0000f0 f7 5d 85 bc db 17 9d 3e 99 94 f0 3d 55 ba 87 be
       -0.016280157 0.30682263 0.11747093 -0.26509348
000100 d9 e6 93 be 80 c5 a5 be 58 2c 09 bd de 4a f4 bc
       -0.2888706 -0.32377243 -0.033489555 -0.029820856
000110 18 52 80 be f9 e9 07 3e f8 36 38 3e 0f 86 bc 3d
       -0.25062633 0.13272847 0.17989719 0.09205257
000120 12 b3 8b 3d 0b b5 8f be 04 a6 a7 3d 29 55 3c 3e
       0.06821264 -0.28067812 0.08185962 0.18391861
000130 15 99 1b be ca f2 8c 3e 7c e6 37 3d 5a a7 5c bc
       -0.15195115 0.27528983 0.04489754 -0.013467634
000140 6b 86 28 bc 08 61 72 3e 0b e7 60 3e 08 cd 9f 3e
       -0.010285954 0.23669827 0.21963136 0.31211114
000150 58 95 69 3c 5d 7a 84 3d b1 12 4a 3e ca fc 98 3d
       0.014256798 0.064686514 0.19733693 0.07470091
000160 c0 fb 34 3e 51 28 04 3d 51 36 87 be e1 c7 22 be
       0.1767416 0.03226501 -0.26408628 -0.1589656
000170 1b 27 cc bd f9 2a 7c bd c4 bc ba 3e 1b d5 c3 3d
       -0.09968396 -0.06156442 0.36472142 0.09562131
000180 19 b4 c2 bd 32 66 c7 bd 08 42 05 3c 79 63 84 bd
       -0.09507007 -0.09736289 0.008133419 -0.064642854
000190 e2 2a f0 3d 50 5d 84 be cf ca 09 3e 1c 15 5a be
       0.11726929 -0.25852442 0.13456272 -0.21297115
0001a0 2d 63 8d 3d a8 5a 10 3d b5 9a ec 3d f8 02 01 3e
       0.06903682 0.035242707 0.115529455 0.12598789
0001b0 b6 f0 86 3e a9 1a 0a 3e 5c e3 fa 3d 3e 42 05 bd
       0.26355523 0.13486733 0.122503966 -0.032533877
0001c0 fe 4c 4e be b3 e3 05 3d ed 47 5a 3e eb b7 5c be
       -0.20146558 0.032687854 0.213165 -0.21554534
0001d0 96 a1 a2 bd 9b 23 b3 3d b7 c4 2a bd ec ca 14 bd
       -0.07940976 0.087470256 -0.04169151 -0.036326334
0001e0 44 f0 8f bd 1f d1 d9 3c 78 7d 63 3e 6f 9f 05 3c
       -0.07028249 0.026588975 0.22215831 0.008155688
0001f0 e0 1d 0a 3e 9e dd 2e be ae 09 a3 bd be 55 eb be
       0.13487959 -0.17076728 -0.07960831 -0.45963854
000200 8c fb 74 3e 6b 10 b8 be 37 98 eb bd a3 44 20 3e
       0.23924083 -0.35950026 -0.11503642 0.15651183
000210 69 1d 7a 3e c0 ba 22 be fb 5a 4b 3e 30 79 84 be
       0.24425282 -0.15891552 0.19858925 -0.2587371
000220 83 5d 8e 3e f1 af 69 be c3 4e 9c be 50 f4 c2 3c
       0.2780572 -0.22821023 -0.3052884 0.023798138
000230 ae ec 5c 3e 3f 1b 3d be 3b 19 fe bd 0e 0b 1e bc
       0.21574661 -0.18467425 -0.12407156 -0.00964619
000240 5f 1f 7b 3e 2f e2 8f bc 0c a0 34 bd 84 0e b5 3d
       0.24523686 -0.017563907 -0.044097945 0.08840659
000250 b5 6f 1d be 5b 4e a3 be 14 1c 95 3e 5e 6b 92 3e
       -0.15374644 -0.31895718 0.29122984 0.2859754
000260 9a b4 94 be f1 9b 2a be ca 96 d8 bd 7e 30 4e 3e
       -0.29044038 -0.1666105 -0.10575636 0.20135686
000270 35 3d 73 3e 9f 0b 95 be ab 00 ab be 77 57 64 be
       0.23753817 -0.2911043 -0.33398947 -0.2229899
000280 c6 29 6f 3e 57 4a 4e be 63 ba 06 be be 36 6a be
       0.23355779 -0.20145546 -0.13157038 -0.22872445
000290 95 29 9c be 2d 40 a9 3e 3e 3f 14 3e 8a 22 1d bc
       -0.30500475 0.33056775 0.1447725 -0.009590754
0002a0 fb 36 3c 3e 75 02 a0 3d 80 a9 b2 be 63 4f 59 3e
       0.18380348 0.07812969 -0.34894943 0.2122169
0002b0 d2 6f b9 bd e3 95 c2 bd ae a6 97 be 81 26 7d 3c
       -0.09054531 -0.09501245 -0.29619354 0.015451075
0002c0 b0 7b 7a 3e a5 a3 96 be b5 02 64 be 2c 54 37 3e
       0.24461246 -0.29421726 -0.22266658 0.17903203
0002d0 ce 3b 8b be fb 59 1b be 4a 1d 52 3e 28 b2 bf 3b
       -0.27194065 -0.15171044 0.20518985 0.0058500953
0002e0 27 84 fe bc 0c 94 70 3e ab 7d 51 3e 3e 1a 9f 3b
       -0.031068875 0.23493975 0.20458095 0.0048554232
0002f0 b2 1d 6b be 8c f2 d8 3d 40 76 cb 3d 8a d0 64 be
       -0.22960547 0.10593137 0.09934664 -0.22345176
000300 d6 17 f6 3d f8 b2 a6 3e ff 3b d3 3e d1 77 54 3e
       0.12016265 0.32558417 0.4125671 0.20748831
000310 f5 8f b7 3d 6b 4f ca be 8d 14 da 3e e4 ce a9 3e
       0.089630045 -0.39513716 0.42593804 0.33165658
000320 87 a2 1f 3e 0e a2 8d 3e d5 cb 86 3e 49 42 99 bd
       0.15589343 0.276627 0.26327386 -0.07483346
000330 90 b4 00 be d6 68 52 be 7a a2 ce 3d 0f 0b b4 3c
       -0.12568879 -0.20547804 0.10089584 0.02197793
000340 06 37 23 be b7 85 81 3e 17 d6 40 3e 93 c8 5b 3e
       -0.15938959 0.2529733 0.18831669 0.21463232
000350 22 c0 37 be 2b 5b c1 bd c4 47 f8 bd 7a 3b e8 3d
       -0.17944387 -0.09441217 -0.12123063 0.11339469
000360 c5 df a6 bd 8b c4 58 3e 16 61 85 3e 2f 46 88 3d
       -0.081481494 0.21168725 0.26050633 0.066540115
000370 89 a1 41 3e 27 94 df 3d 9b de 9a be 37 75 73 3e
       0.18909277 0.1091693 -0.3024796 0.23775183
000380 97 57 86 be 87 81 5a 3e fe 9f 39 be 3f 25 96 3c
       -0.262387 0.21338473 -0.18127438 0.018328307
000390 e9 41 d9 3d 0e 51 bc 3c 65 e3 97 bd 85 59 46 3e
       0.106082745 0.022987869 -0.07416419 0.19370086
0003a0 87 93 3e be 00 08 57 be c2 3a de bd 2e ec 9d 3e
       -0.18610965 -0.20999146 -0.10851051 0.30844253
0003b0 10 cc dc bd ce e4 10 be 3a a2 8c be 43 41 b7 bd
       -0.10781109 -0.14149782 -0.2746752 -0.089479946
0003c0 60 6f 23 bd 09 04 ba bd 2e 32 a0 be c0 2a 7e bd
       -0.039901137 -0.09082801 -0.31288284 -0.06205249
0003d0 c0 df 24 3e d3 59 23 3e 24 93 91 be 90 46 bb bd
       0.16100979 0.15952234 -0.28432572 -0.09144318
0003e0 e3 a1 d4 3e e5 94 ac bd 34 be 25 3d cf bf 2c 3e
       0.4152976 -0.08426837 0.040464595 0.16870044
0003f0 fe 48 78 be 50 5c 26 be 6b 0d 92 3e fa ee 11 3d
       -0.24246594 -0.16246152 0.28525862 0.035628296

conv2.bias f4 [7]
000000 f0 e2 f0 3e 4c 80 57 3e 8b 37 c8 bd 8e 65 c0 be
       0.4704814 0.21045035 -0.09776219 -0.3757748
000010 e3 ed 7a 3e 88 b7 1d be 5a 48 82 3e
       0.24504809 -0.15402043 0.25445825

conv2.lin.weight f4 [7, 16]
000000 00 70 36 3f f5 1f 33 bf c4 a4 25 3f 04 b1 91 be
       0.7126465 -0.6997064 0.6470454 -0.28455365
000010 06 53 50 bf 0d aa 4e bf e4 c1 b2 3e a3 31 97 be
       -0.81376684 -0.80728227 0.34913552 -0.29530057
000020 16 25 65 bf 9b 96 10 3f f9 bd 4a bf 44 13 4f 3f
       -0.89509714 0.56479806 -0.79196125 0.8088877
000030 89 7c 38 bf 4b d2 01 3f 1c f4 a7 be 47 76 e5 be
       -0.72065026 0.50711507 -0.32803428 -0.448168
000040 7d ad 4b bf 34 8e 66 bf 14 df 54 bf 7a 12 2b 3f
       -0.795616 -0.90060735 -0.8315289 0.6682507
000050 ca f4 d1 3d ed 03 8b 3e 4c 51 6a 3e c3 5f 28 3f
       0.10251768 0.27151433 0.22882575 0.6577112
000060 b6 27 23 3f e2 2a 66 bf c5 74 de 3e 68 e6 6b bf
       0.6373247 -0.89909184 0.43448463 -0.9214845
000070 8d 7d 43 bf 64 3e c2 3d 72 ad 13 bf d1 f6 63 bf
       -0.7636345 0.09484556 -0.5768653 -0.89048487
000080 66 06 57 bf eb 72 1e 3f 80 9c 63 bf 19 14 a1 3e
       -0.8399414 0.618941 -0.88910675 0.31460646
000090 fe dc 23 bf 22 c2 65 3c e7 68 ca be bc 4b 58 bf
       -0.6400908 0.014023336 -0.3953316 -0.8449056
0000a0 4d e7 35 bf 4c db 63 3f 90 64 59 bf 2e 7e 48 3d
       -0.7105606 0.89006495 -0.8491907 0.04894846
0000b0 d0 39 1a bf de cf 1a bf e1 f4 07 3f 75 bb 03 3f
       -0.60244465 -0.6047343 0.5310803 0.5145791
0000c0 72 56 29 bf 5b 56 6c bf 41 0e 36 3f 6f e2 c2 3d
       -0.6614753 -0.9231927 0.711155 0.09515845
0000d0 74 5e 25 3f 03 e1 03 3f 32 7f 69 bf 6b 1e 0b bf
       0.6459725 0.51515216 -0.9120971 -0.5434329
0000e0 1d 03 e1 3e 37 3a e4 be 6d 4a 2c 3d ea a7 86 3e
       0.43947688 -0.44575664 0.042063165 0.26299983
0000f0 6c ea 22 3f 6d 30 03 3f 54 96 21 bf 28 4f c2 3e
       0.6363895 0.51245767 -0.6312001 0.37951016
000100 7b 29 29 bf 42 39 0a 3f ea 51 35 bf cd cf 0d bf
       -0.6607892 0.5399362 -0.70828116 -0.55395204
000110 06 d5 49 bf 6d 06 9a 3e 96 d8 12 3f 39 33 2d 3f
       -0.7884067 0.30083027 0.57361734 0.67656285
000120 77 d4 37 bf 58 c6 02 bf b6 cb 00 bf 52 8d b1 3e
       -0.7180857 -0.510839 -0.5031084 0.3467813
000130 2f f1 3e bf 9e 73 3c bf 89 c7 e6 3e d0 f1 10 3f
       -0.74586767 -0.7361392 0.45074108 0.56618977
000140 bd 07 bf 3e 45 ac 90 3d 8c cd 3e 3f 8f d3 63 bf
       0.3731059 0.07064108 0.7453239 -0.8899469
000150 4c 61 5f bf ff b7 33 3e 45 d2 56 bf 8e 04 18 3f
       -0.8725784 0.17550658 -0.83914596 0.5938195
000160 59 a3 9f 3e 53 59 37 3f 65 e9 c4 3e 7f 02 53 bf
       0.31179312 0.7162067 0.38459316 -0.82425684
000170 8f 0e 43 be c1 f3 7c bf 0b e3 3d 3f 5e f7 4c bf
       -0.19048522 -0.9880944 0.74174565 -0.8006495
000180 a7 23 f8 3e ed 67 56 3f ad 3b 30 bf cf 7f 76 3e
       0.484647 0.8375233 -0.6884106 0.24072193
000190 9c b6 2a 3f 84 4a 4e bf e0 5e 37 bf c4 fe 4c 3e
       0.6668489 -0.8058245 -0.7162914 0.2001906
0001a0 c3 7f 29 bf 15 53 56 be 92 03 0c 3f cd f6 45 bf
       -0.66210574 -0.20930131 0.5469295 -0.77329713
0001b0 ff 03 c9 3e df f7 20 3f 0a 15 4b bf b9 30 03 bf
       0.3926086 0.6287822 -0.7932898 -0.5124622
